…
d(1,6,3) self.conv2 = nn.Conv2d(6,16,3) # 尾部的全连接层 # 3*3卷积得到的输出是6*6 self.fc1 = nn.Linear(16*6*6, 120) self.fc2 = nn.Linear(120, 84) self.fc3 = nn.Linear(84, 10) def num_flat_features(self, x): size = x.size()[1:] # batch维不会被压平 num_features = 1 for s in size: num_features *= s return num_features def forward(self, x): # 做最大池化以下采样 x = F.max_pool2d(F.relu(self.conv1(x)), (2,2)) # 如果是用的方阵的话也可以只写行数或列数 x = F.max_pool2d(F.relu(self.conv2(x)), 2) # 形状变换 x = x.view(-1, self.num_flat_features(x)) x = F.relu(self.fc1(x)) x = F.relu(self.fc2(x)) x = self.fc3(x) return x net = Net() print(net) . Net( (conv1): Conv2d(1, 6, kernel_size=(3, 3), stride=(1, 1)) (conv2): Conv2d(6, 16, kernel_size=(3, 3), stride=(1, 1)) (fc1): Linear(in_features=576, out_features=120, bias=True) (fc2): Linear(in_features=120, out_features=84, bias=True) (fc3): Linear(in_features=84, out_features=10, bias=True) ) . 你必需定义forward方法。backward方法会在指定autograd时自动计算得到。forard方法中可以用任意tensor操作。 . 网络可学习的参数由net.parameters()导出： . params = list(net.parameters()) print(len(params)) print(params[0].size()) . 10 torch.Size([6, 1, 3, 3]) . 我们测试一个随机的32x32输入。注意这个网络的输入大小是32x32。为了在MNIST数据集上使用这个网络，必需将数据的大小变换为32x32: . input = torch.randn(1,1,32,32) out = net(input) print(out) . tensor([
…
2d即可，现在换成nn.MaxPool2d了 self.pool = nn.MaxPool2d(2,2) self.conv2 = nn.Conv2d(6,16,5) # 尾部的全连接层 # 5*5卷积得到的输出变小了 self.fc1 = nn.Linear(16*5*5, 120) self.fc2 = nn.Linear(120, 84) self.fc3 = nn.Linear(84, 10) def num_flat_features(self, x): size = x.size()[1:] # batch维不会被压平 num_features = 1 for s in size: num_features *= s return num_features def forward(self, x): x = self.pool(F.relu(self.conv1(x))) # 如果是用的方阵的话也可以只写行数或列数 x = self.pool(F.relu(self.conv2(x))) # 形状变换 x = x.view(-1, 16 * 5 * 5) x = F.relu(self.fc1(x)) x = F.relu(self.fc2(x)) x = self.fc3(x) return x net = Net() print(net) . Net( (conv1): Conv2d(3, 6, kernel_size=(5, 5), stride=(1, 1)) (pool): MaxPool2d(kernel_size=2, stride=2, padding=0, dilation=1, ceil_mode=False) (conv2): Conv2d(6, 16, kernel_size=(5, 5), stride=(1, 1)) (fc1): Linear(in_features=400, out_features=120, bias=True) (fc2): Linear(in_features=120, out_features=84, bias=True) (fc3): Linear(in_features=84, out_features=10, bias=True) ) . 3.&#23450;&#20041;&#25439;&#22833;&#20989;&#25968;&#21644;&#20248;&#21270;&#22120; . 我们用一个分类器交叉熵做为损失函数，并用带动量的SGD作为权重更新方法： . import torch.optim as optim criterion = nn.CrossEntropyLoss() optimizer = optim.SGD(net.parameters(), lr=0.001, momentum=0.9) . 4.&#35757;&#32451;&#32593;&#32476; . 开始变得好玩了，我们只需要遍历我们的数据迭代器，将输入喂给网络并进行优化： . for epoch in range(2): 
…
, 100 * class_correct[i] / class_total[i])) . Accuracy of plane : 0 % Accuracy of car : 26 % Accuracy of bird : 0 % Accuracy of cat : 24 % Accuracy of deer : 0 % Accuracy of dog : 25 % Accuracy of frog : 0 % Accuracy of horse : 25 % Accuracy of ship : 0 % Accuracy of truck : 0 % . 我们该如何在GPU上运行这些网络呢？ . &#22312;GPU&#19978;&#36816;&#34892; . 可以用和迁移Tensor一样的方法将网络迁移到GPU上。 首先设置设备为首个cuda设备，如果cuda可用的话： . device = torch.device(&quot;cuda:0&quot; if torch.cuda.is_available() else &quot;cpu&quot;) print(device) . cuda:0 . 如若机器上有CUDA设备，那么这些方法将递归地遍历所有模块，并将它们的参数和缓存转换为cuda上的张量： . net.to(device) . Net( (conv1): Conv2d(3, 6, kernel_size=(5, 5), stride=(1, 1)) (pool): MaxPool2d(kernel_size=2, stride=2, padding=0, dilation=1, ceil_mode=False) (conv2): Conv2d(6, 16, kernel_size=(5, 5), stride=(1, 1)) (fc1): Linear(in_features=400, out_features=120, bias=True) (fc2): Linear(in_features=120, out_features=84, bias=True) (fc3): Linear(in_features=84, out_features=10, bias=True) ) . 同时，你也需要将每一步的输入和目标送个GPU: . inputs,labels = data[0].to(device), data[1].to(device) . 为什么GPU速度没有明显提升呢？因为网络太小了。 . 练习增加网络的宽度（首个nn.Conv2d的第二个参数与第二个nn.Conv2d的第一个参数），看看加速能达到多少。 . 目标完成： . 理解Tensor库和神经网络 | 训练一个小的神经网络用于分类图片 | .",
            "url": "https://henryalps.github.io/fastpages/jupyter/pytorch/2020/05/30/Getting-Pytorch-one-hour.html",
            "relUrl": "/jupyter/pytorch/2020/05/30/Getting-Pytorch-one-hour.html",
…
